2024-05-06,19:27:06 | INFO | Running with a single process. Device cuda:0.
2024-05-06,19:27:06 | INFO | Loading RN50_fusion4 model config.
2024-05-06,19:27:06 | INFO | RN50_fusion4 Loaded.
2024-05-06,19:27:10 | INFO | Model:
2024-05-06,19:27:10 | INFO | PMC_CLIP(
  (visual): QuantumResNet(
    (conv1): Conv2d(3, 8, kernel_size=(3, 3), stride=(1, 1), padding=(1, 1))
    (conv2): Conv2d(8, 16, kernel_size=(3, 3), stride=(1, 1), padding=(1, 1))
    (fc): Linear(in_features=784, out_features=4, bias=True)
    (fc_out): Linear(in_features=4, out_features=768, bias=True)
  )
  (text_encoder): BertModel(
    (embeddings): BertEmbeddings(
      (word_embeddings): Embedding(30522, 768, padding_idx=0)
      (position_embeddings): Embedding(512, 768)
      (token_type_embeddings): Embedding(2, 768)
      (LayerNorm): LayerNorm((768,), eps=1e-12, elementwise_affine=True)
      (dropout): Dropout(p=0.1, inplace=False)
    )
    (encoder): BertEncoder(
      (layer): ModuleList(
        (0-11): 12 x BertLayer(
          (attention): BertAttention(
            (self): BertSelfAttention(
              (query): Linear(in_features=768, out_features=768, bias=True)
              (key): Linear(in_features=768, out_features=768, bias=True)
              (value): Linear(in_features=768, out_features=768, bias=True)
              (dropout): Dropout(p=0.1, inplace=False)
            )
            (output): BertSelfOutput(
              (dense): Linear(in_features=768, out_features=768, bias=True)
              (LayerNorm): LayerNorm((768,), eps=1e-12, elementwise_affine=True)
              (dropout): Dropout(p=0.1, inplace=False)
            )
          )
          (intermediate): BertIntermediate(
            (dense): Linear(in_features=768, out_features=3072, bias=True)
            (intermediate_act_fn): GELUActivation()
          )
          (output): BertOutput(
            (dense): Linear(in_features=3072, out_features=768, bias=True)
            (LayerNorm): LayerNorm((768,), eps=1e-12, elementwise_affine=True)
            (dropout): Dropout(p=0.1, inplace=False)
          )
        )
      )
    )
    (pooler): BertPooler(
      (dense): Linear(in_features=768, out_features=768, bias=True)
      (activation): Tanh()
    )
  )
  (ln_final): LayerNorm((768,), eps=1e-05, elementwise_affine=True)
  (softmax): LogSoftmax(dim=-1)
  (fusion_module): Transformer(
    (resblocks): ModuleList(
      (0-3): 4 x ResidualAttentionBlock(
        (attn): MultiheadAttention(
          (out_proj): NonDynamicallyQuantizableLinear(in_features=768, out_features=768, bias=True)
        )
        (ln_1): LayerNorm((768,), eps=1e-05, elementwise_affine=True)
        (mlp): Sequential(
          (c_fc): Linear(in_features=768, out_features=3072, bias=True)
          (gelu): GELU(approximate='none')
          (c_proj): Linear(in_features=3072, out_features=768, bias=True)
        )
        (ln_2): LayerNorm((768,), eps=1e-05, elementwise_affine=True)
      )
    )
  )
)
2024-05-06,19:27:10 | INFO | Params:
2024-05-06,19:27:10 | INFO |   batch_size: 128
2024-05-06,19:27:10 | INFO |   bert_model_name: microsoft/BiomedNLP-PubMedBERT-base-uncased-abstract-fulltext
2024-05-06,19:27:10 | INFO |   beta1: 0.9
2024-05-06,19:27:10 | INFO |   beta2: 0.999
2024-05-06,19:27:10 | INFO |   checkpoint_path: ./logs/2024_05_06-19_27_06-model_RN50_fusion4-lr_0.0001-b_128-j_8-p_amp/checkpoints
…
